best_model.pth (torch, 656053 bytes, 35 tensors)

positional_embeddings f4 [1, 64, 64]
000000 ef 2c 58 3a 94 ec fc 3a af 4a 4f bc 6b d8 91 3a
       0.0008246442 0.001929658 -0.012652083 0.001112712
000010 24 98 21 3b bd e6 57 b9 3f 0f a2 3a f8 d1 1b 3a
       0.0024657333 -0.00020589955 0.0012364163 0.00059440685
000020 21 96 17 3a fd a9 c4 bc 9b ed 02 bb 51 ae b1 3a
       0.0005782564 -0.024006838 -0.001997805 0.0013555979
000030 f6 2a d4 3a fb ae 9d 3c 0a 4d 19 bc 84 35 ae bb
       0.001618712 0.019248476 -0.009356746 -0.005316438
000040 b9 d5 42 bd a0 6e d9 3a 1f 50 0c 3e 17 4b e5 3b
       -0.047567103 0.0016588755 0.13702439 0.006997477
000050 89 ee 99 3a 5e a4 6d 3a 56 72 01 3c 9d d7 e2 3a
       0.0011744063 0.0009065325 0.007900795 0.0017306689
000060 9b 59 0e 3e f1 76 98 3a 8e 66 31 3e 65 8d e3 3a
       0.1390137 0.0011632127 0.17324278 0.0017360864
000070 6a 99 20 be da a8 87 3a f4 34 80 3a 35 87 ac 3a
       -0.15683523 0.0010350004 0.0009781406 0.0013162853
000080 69 99 a6 3a 7f 36 7d 3a 45 b9 15 be 72 db a9 3a
       0.0012710515 0.00096593046 -0.14621456 0.0012959077
000090 01 48 b0 3a 31 5c 88 3a 38 72 20 3a d5 a4 77 3a
       0.0013449193 0.0010403452 0.00061205355 0.0009446864
0000a0 ef 69 a5 3a 82 11 50 3b b0 f7 b5 be 55 07 87 3a
       0.0012620072 0.0031748717 -0.35540533 0.0010301868
0000b0 77 ef 7e 3a 1c 6b b5 b9 5d ee fe bc 31 43 38 3a
       0.0009725014 -0.00034602813 -0.03111952 0.0007029055
0000c0 ea 38 3b 3a 6e 2b 87 bd 66 de ea bd f4 43 09 bc
       0.0007141965 -0.066000804 -0.114682004 -0.008378018
0000d0 b0 4e 97 3a 08 b3 cf bb d3 4a 06 3b a5 42 b7 ba
       0.0011543836 -0.006338481 0.0020491376 -0.0013981654
0000e0 f9 b0 69 3a 59 86 a6 bb 5a 1d 4e 3a 97 fb 38 be
       0.00089146156 -0.0050819335 0.000786265 -0.18064724
0000f0 10 e0 ba 3a bd fc a8 3a bd be be 3c 07 0a c3 ba
       0.001425745 0.0012892705 0.02328431 -0.0014880308
000100 e3 e4 ad bb 6b 64 0d 3c 92 b7 a9 bb ba f8 76 39
       -0.0053068264 0.008629899 -0.005179354 0.00023553046
000110 57 1d 29 3f ff b3 93 3b f5 5f 16 3a de 27 ea ba
       0.66060394 0.004507541 0.00057363446 -0.0017864665
000120 23 5f a6 39 1a 5e 2a 3a 5e 5b 7f 39 30 73 01 3a
       0.0003173287 0.00064990076 0.00024352732 0.0004938124
000130 26 69 f2 bc 3d 84 0e 3a 7f 24 f3 b9 e6 d8 22 bd
       -0.029591154 0.0005436575 -0.00046375763 -0.03975763
000140 3a c3 57 b9 3e 50 15 39 c7 b0 f9 b9 02 f4 03 bd
       -0.00020576725 0.0001423964 -0.0004762469 -0.032215126
000150 cb 96 10 3a 53 c5 af 39 ba 36 92 bd 11 1b 26 3c
       0.0005515634 0.0003352562 -0.071393445 0.010138289
000160 5c fb cd 3d a0 d3 c2 bd 1b ce 87 3b 06 ab 08 3d
       0.100577086 -0.095130205 0.0041444427 0.033366226
000170 39 90 4e 39 6e 4e cc 38 af 73 ac 3b 5c 70 0f 3a
       0.00019699418 9.742087e-05 0.005262814 0.000547176
000180 b0 32 1b 3a c5 a4 14 3c e8 72 d5 3b c8 f0 8d bb
       0.0005920334 0.009072487 0.006513942 -0.004331682
000190 f0 f1 43 bf ca ad 00 39 dc c7 22 3d 45 57 10 3a
       -0.7654104 0.00012271773 0.039741382 0.0005506168
0001a0 50 05 6c 3b 19 31 d6 3a b9 a5 2d 3b 41 90 d2 bb
       0.0036013909 0.0016341537 0.0026496483 -0.006425888
0001b0 b7 0a 65 3b de df 84 3a 77 c5 0f 3e 46 8d 4b 38
       0.0034949013 0.0010137518 0.1404017 4.8530543e-05
0001c0 f4 a6 dd 38 04 bb 84 be f3 fe 6a bd a1 cf 3b bd
       0.00010569199 -0.25923932 -0.057372045 -0.045852307
0001d0 11 ef 3b bb ff 0f 4b bd d2 0d 05 3a 34 1d c9 b9
       -0.002867643 -0.049575802 0.0005075607 -0.00038359466
0001e0 fe 76 c8 bd 78 25 35 bd c7 9c 83 39 28 a6 a8 3a
       -0.09788321 -0.044225186 0.00025103075 0.0012866901
0001f0 4d d5 1d 3a 51 58 6f bc 8b 39 be bb 68 1b 21 bb
       0.0006020859 -0.014608459 -0.0058051995 -0.0024582986
000200 85 f8 d6 38 75 67 13 bf d6 18 13 bb 12 7e 24 39
       0.000102506056 -0.5757974 -0.0022445223 0.00015687224
000210 b0 09 0a b9 02 7b 0f 3d 63 e6 f7 39 26 30 a6 bb
       -0.00013164314 0.03502942 0.00047283163 -0.0050716577
000220 3d 6e e7 3a f1 0a bd b8 aa 4e 7b b9 80 57 1e 3a
       0.0017656755 -9.01426e-05 -0.0002396653 0.000604026
000230 f4 b4 f6 bb d4 84 11 3a 93 4f 07 3e 91 98 09 bd
       -0.0075288955 0.0005551104 0.13213949 -0.033592764
000240 03 0d 6d 3b 04 1e 3c 3a 48 42 9a 3a e1 b7 a5 bd
       0.0036171086 0.00071761035 0.0011769021 -0.08091713
000250 10 69 ad 3c fc 97 2e b7 0c bc 21 3c f2 86 bf 3a
       0.021168262 -1.0406595e-05 0.009871494 0.001461236
000260 66 60 86 bc bb 0d 09 3a 9f 87 3c bd 15 f3 a9 3c
       -0.016403388 0.0005228181 -0.046027776 0.020745793
000270 7b 3e a3 b9 d8 03 ab 39 37 95 6c 39 0b db 0b 3a
       -0.00031136334 0.00032618525 0.00022562301 0.0005335069
000280 44 56 fa 39 5f 87 3a 39 a8 18 27 bd e5 16 63 bd
       0.0004774799 0.00017788772 -0.040795 -0.055441756
000290 94 bd 08 3a 00 cb 88 be 0e 55 87 ba 37 76 7a b8
       0.00052162376 -0.26717377 -0.0010325031 -5.971474e-05
0002a0 30 03 03 3a 6f ed 98 3b 52 e5 11 bc 6d 4c 85 39
       0.00049977284 0.004666976 -0.008904772 0.00025424678
0002b0 d2 14 53 bb 27 ff b5 3a 88 13 99 3c 91 3c d5 b9
       -0.0032208455 0.0013885245 0.018686071 -0.0004067165
0002c0 1f bc 49 ba 49 db 1f 3e f8 05 ee be c1 17 a1 ba
       -0.0007695574 0.15610994 -0.4648893 -0.0012290404
0002d0 c6 a5 cd 39 a7 40 24 bc 5a 31 e5 3e f0 4a 65 bd
       0.00039224158 -0.01002518 0.44764215 -0.05597967
0002e0 bb de 6d 39 01 25 39 be a7 86 00 39 2b e4 9d bb
       0.00022685055 -0.18080522 0.00012257193 -0.0048184595
0002f0 bd 41 4f 3a de 58 9f 3c 08 2d 8e 3b ab cf 73 be
       0.0007906219 0.019451555 0.0043388642 -0.23809688
000300 c3 fb d7 b8 36 99 da 3a f2 8b 09 bb 87 d3 2f b9
       -0.00010298893 0.001667774 -0.0020987955 -0.000167681
000310 db 20 83 b8 27 88 6f 39 98 2e 87 39 87 74 42 3a
       -6.2526866e-05 0.00022843537 0.00025783922 0.00074178766
000320 8c 35 91 b9 ec b2 dd 37 7c ee 7a b9 b4 e7 4f 39
       -0.0002769645 2.642857e-05 -0.000239307 0.00019827374
000330 77 3c 9c b9 53 e8 e5 3a 69 25 c1 3c 57 c3 c8 3b
       -0.00029799688 0.0017540551 0.023577409 0.006126802
000340 01 59 50 3d 7b 0a ca 39 64 62 98 b8 92 ee 0d 3a
       0.05086613 0.0003853625 -7.2662515e-05 0.0005414273
000350 9f 21 56 39 10 fe 9c b8 e2 4c 18 bc 2b 98 42 bb
       0.00020421155 -7.4859825e-05 -0.009295674 -0.002969275
000360 8b 4a 9e be 6b 62 8e b4 98 ed 1f bd 4f 56 bc 3a
       -0.30916247 -2.652117e-07 -0.039044946 0.0014368984
000370 f1 f0 89 b8 61 60 2b 39 1c 50 36 b7 b8 6f 06 3a
       -6.577548e-05 0.00016343735 -1.0866697e-05 0.0005128342
000380 e4 fe 4e 39 82 9f c0 bd 4f 7f d6 bc b5 84 4b b9
       0.00019740645 -0.09405424 -0.026183752 -0.00019409026
000390 a6 09 96 39 e8 28 7d 3e 07 d1 1f ba e0 69 67 38
       0.00028617418 0.24722636 -0.0006096516 5.5173296e-05
0003a0 d6 bd 50 39 c1 6f 01 3d aa 62 53 3d a2 45 8b 38
       0.00019907145 0.031600717 0.051607765 6.6410066e-05
0003b0 b9 11 6c ba 4b 2f e4 b9 6b a1 be 3d 90 53 92 b9
       -0.00090053264 -0.00043522785 0.09308132 -0.0002790955
0003c0 5c e8 02 ba c6 3f 8b 3e 42 17 38 3b 86 52 08 ba
       -0.00049937307 0.27197093 0.0028090035 -0.0005200285
0003d0 40 30 07 39 5b b2 a1 3d 7f d6 7d 3d b8 99 9c bb
       0.00012892578 0.07895347 0.061972138 -0.004779067
0003e0 4c 72 ca b8 47 36 77 bb b2 46 3f b9 8d cc 7f 3a
       -9.6534e-05 -0.003772156 -0.00018241515 0.00097579585
0003f0 20 13 94 39 fb e0 6f 3d 5a 44 01 3e a1 6b 79 bb
       0.0002824301 0.058564167 0.1262373 -0.0038058537

cnn.0.weight f4 [32, 3, 3, 3]
000000 e7 8b 1c 3e 0e 17 88 3d 10 26 0a be 61 2f ec bd
       0.15287744 0.06645022 -0.13491082 -0.11532474
000010 ec 1d 74 3d b5 7c de bd c8 2f 23 3e 85 51 c4 3d
       0.05959885 -0.1086363 0.15936196 0.09585861
000020 40 88 44 3d 28 c2 ac bc f8 dc 21 bc 98 a1 09 bd
       0.0479815 -0.021088675 -0.009879343 -0.033601373
000030 2e db 0a 3d d8 86 2d bc 5e 2f af 3d 9a cf 1e 3e
       0.033900432 -0.010591231 0.085539564 0.15508881
000040 d9 5f ef bd b1 a7 10 3e 4b e4 cf bd bb 14 42 bd
       -0.11688203 0.14126469 -0.10150965 -0.04738305
000050 52 b1 6c bb 5b a6 d3 3d 34 a1 bd bc 74 5a eb bd
       -0.0036116433 0.10334464 -0.023148157 -0.11491862
000060 6e aa 86 3d 39 d3 89 bd 2e 0d 4d 3d 05 20 71 3d
       0.06575476 -0.06729741 0.050061397 0.058868427
000070 16 d7 d9 bd 85 bd 3b 3e c2 ce 33 3e 46 dd 26 be
       -0.106367275 0.18334015 0.1755934 -0.16295347
000080 68 e4 0c be 9d 8c 1f 3d 50 f6 ce bd a1 10 36 3d
       -0.13759005 0.03895246 -0.10105574 0.044449452
000090 68 35 04 bd 48 2b ff bd 33 0d 5c 3d f8 bb 98 3d
       -0.032277495 -0.12459427 0.053723525 0.07457727
0000a0 62 e3 e2 bd d2 04 24 bd a8 c9 da 3d 3a 15 83 3d
       -0.11078526 -0.04004366 0.10682994 0.06400533
0000b0 2b 6a ec bd d3 42 98 3c 78 94 10 3e a3 52 d4 bd
       -0.115436874 0.018586552 0.14119136 -0.10367324
0000c0 cb e6 f2 3d b0 b1 ef bd fb 9c 1f 3e 87 3f 68 bd
       0.118604265 -0.11703813 0.15587227 -0.05670121
0000d0 58 76 e2 bd 2c 4b 98 bc 83 67 15 3d 9b 75 8b bd
       -0.110577285 -0.018590532 0.03647567 -0.06809541
0000e0 8f f4 17 be 95 f9 dc bd aa f6 88 bd a4 0b 86 3d
       -0.14839385 -0.107897915 -0.066876724 0.06545189
0000f0 2a aa 28 bd d2 ef af bd 48 75 27 3e 12 63 c7 3d
       -0.041177906 -0.08590664 0.16353333 0.09735693
000100 87 6a a3 bd 1e 3c 8c bd 3a d7 fe bd 64 84 c7 bd
       -0.07979303 -0.06847404 -0.12443395 -0.097420484
000110 8c ea bd 3d 79 0d f2 3d 2e ef 79 3d ff c7 09 3e
       0.09273252 0.11818976 0.061019115 0.13455199
000120 dd 60 72 3d cd 8d f3 3d 23 e1 d6 bd 29 20 cd 3c
       0.059174407 0.11892281 -0.1049216 0.02503975
000130 2f c9 c5 3d 9a 5d bb bd 46 e3 ef bc ca 2b 22 be
       0.09657513 -0.091487125 -0.029283177 -0.15837017
000140 b5 bd 87 3d a6 a2 2e bd 3e d8 e1 3c a4 0e 68 3d
       0.066279806 -0.042635582 0.027568933 0.056654587
000150 b9 b7 d1 3d 82 7f ca 39 1e 90 8e bd a4 2b 25 bd
       0.102401204 0.00038623443 -0.06961082 -0.040324822
000160 50 7d 73 3d 05 60 d0 3d c7 03 49 3d 13 66 43 bc
       0.05944568 0.10174564 0.049075868 -0.011926192
000170 2d 1f d6 bd 3f 5d a8 bd 39 b9 c1 bd 54 03 a0 3d
       -0.10455165 -0.0822091 -0.094591565 0.07813135
000180 28 9e 13 3c 0f d8 0c 3d 92 cb bd 3c 2e 59 e1 bc
       0.009009875 0.034385737 0.023168359 -0.027508345
000190 3e f2 82 3d 60 1c a8 bd b8 a2 e4 3d 46 c1 0c bb
       0.0639386 -0.08208537 0.11163849 -0.0021477505
0001a0 34 9b dd 3c b5 c2 c4 bd c0 a6 f3 bd 74 f1 36 bd
       0.027051546 -0.0960745 -0.118970394 -0.04466386
0001b0 db 7e 0d 3e 97 2a 90 3d 0b 37 11 bd 01 87 8a bd
       0.13817923 0.07039373 -0.035452884 -0.06764031
0001c0 ce d4 08 3e 96 79 b5 3d 0c bd fd bd ec 84 97 3d
       0.13362429 0.08861081 -0.123895735 0.073984
0001d0 e3 b1 97 bc bd 7a 11 bd 17 dc a3 bd 86 7c 85 3c
       -0.01851744 -0.035517443 -0.08000963 0.016294729
0001e0 79 af af bd 50 75 e4 bd 08 76 d1 bd a3 f5 a3 bd
       -0.08578391 -0.11155188 -0.10227591 -0.08005836
0001f0 b0 e0 7b 3d 80 21 5a bd 75 02 f5 bc 99 1f 58 bd
       0.061493576 -0.053254604 -0.029908398 -0.05276451
000200 66 a9 50 bd 85 b4 63 bd 09 14 b1 3d f0 32 8a 3d
       -0.0509428 -0.05559208 0.086463995 0.06747997
000210 3e 9c ae 3d 29 36 ee 3d ca 10 66 bd ba 38 fc bc
       0.085258946 0.11631424 -0.056168355 -0.030788768
000220 82 42 89 bd 14 7c c6 bd 2e a0 e3 bd ca c5 4d bd
       -0.067021385 -0.09691635 -0.11114536 -0.050237454
000230 55 95 cd 3d 82 c4 07 3e d1 ea 08 be 51 44 8e 3d
       0.100382484 0.13258556 -0.13370825 0.06946624
000240 8e 5b ee bb 52 4a 35 3e 67 83 25 3e 94 95 28 3e
       -0.0072740978 0.17704132 0.16163407 0.1646331
000250 1c af f5 3c 00 94 33 3e c7 78 52 3d 68 35 a6 3c
       0.029990725 0.17536926 0.051384714 0.020289138
000260 76 90 45 bd 55 9d fe 3d 89 db cc bd 99 6f 4f 3d
       -0.04823347 0.124323525 -0.100028105 0.050643537
000270 d7 a4 e5 bd 15 09 85 bd 07 3a 08 3e 75 ef bc bd
       -0.11213081 -0.06495873 0.13303386 -0.0922536
000280 a2 ae 2f bb 1f 35 d4 bb 53 a0 0a bc d0 83 d2 bd
       -0.002680697 -0.006476059 -0.008461076 -0.102790475
000290 d3 40 16 3e a1 3d 23 3e 03 f5 e1 b7 43 b4 13 3d
       0.14673166 0.15941478 -2.6936183e-05 0.036060583
0002a0 8a fa e9 bd c0 86 8f bd 88 60 e1 3d a2 2e 91 bd
       -0.1142474 -0.070081234 0.1100474 -0.07088973
0002b0 41 72 8f bd 1c 96 d0 bc fc 26 d8 3d 46 65 d7 bd
       -0.07004214 -0.025462203 0.10554311 -0.10517363
0002c0 1a 2b 39 3d 10 1c b2 bd fa a7 6f bd 2c c2 31 3d
       0.04520712 -0.08696759 -0.058509804 0.043398067
0002d0 ce 51 f8 bc 28 41 c0 3c bd e1 c6 3d f7 d1 ce bd
       -0.030312445 0.023468569 0.09711025 -0.10098641
0002e0 1e 47 03 be 8f 75 04 3d f5 07 ed bd dc 52 bf bc
       -0.12820098 0.032338675 -0.11573783 -0.02335494
0002f0 8e cb ab 3d 88 17 27 3e 0d 5d 98 bd 41 84 99 3d
       0.08388434 0.1631757 -0.07439623 0.074959286
000300 d7 0c bb 3c c5 51 12 3e 35 96 12 bd a0 cf cf 3d
       0.022833271 0.14289005 -0.03578778 0.10147023
000310 5d 9c 25 3d a5 60 b0 bd 7d 62 9f bd 66 c9 9a 3d
       0.040432323 -0.086121835 -0.07782457 0.07557945
000320 62 ac 8c bd a1 fb 64 3d 3c 05 af bd 02 3a 28 3d
       -0.06868817 0.055904035 -0.0854592 0.041070946
000330 5f 4b 59 3d c0 c7 bf 3d d2 d5 b4 3d ea 85 85 3d
       0.053050395 0.09364271 0.088298455 0.06519683
000340 41 52 1e bd d6 e8 3a 3c 46 eb dc bc 15 72 a3 3c
       -0.038652662 0.0114080515 -0.026967656 0.01995186
000350 04 76 71 bc 67 6f f9 bd d7 a8 0a be 09 e9 b2 bd
       -0.01473761 -0.121794514 -0.1354097 -0.08735854
000360 34 c7 cc 3d 07 60 b4 3d 65 f0 0b 3e b3 63 f6 3d
       0.099989325 0.08807378 0.13665922 0.12030735
000370 7f 55 bb 3d f8 13 ca 3d c6 b4 17 bd 09 98 13 3d
       0.091471665 0.0986709 -0.037037633 0.036033664
000380 fe c8 f0 bc 31 e7 98 3d 9b c2 de bb 68 1d 91 bd
       -0.029392716 0.07465971 -0.006798101 -0.07085687
000390 01 d3 95 bd e6 d3 09 be ea 9d cd bc 28 f7 dd 3d
       -0.073156364 -0.13459739 -0.025099713 0.10838157
0003a0 f9 67 ac 3d 47 6d 08 bd 8b 75 8a 3d 45 50 2c bc
       0.08418269 -0.03330734 0.06760701 -0.010517185
0003b0 83 b6 cc 3d 4a 39 48 bd 51 18 34 3d 66 a6 27 be
       0.09995749 -0.04888276 0.043968502 -0.1637207
0003c0 ac ef 94 bd c0 e8 08 be d4 13 6e 3c f1 76 20 3d
       -0.07272276 -0.13370037 0.014531095 0.03917593
0003d0 f7 1e e0 3d 44 4f b9 bd 48 64 43 3d 9c 2b 8e bd
       0.10943406 -0.09048322 0.047703058 -0.069419116
0003e0 b0 06 8d 3b 6f 59 af 3d ed 10 93 bc f1 b8 04 be
       0.0043037757 0.0856198 -0.017952407 -0.12961175
0003f0 f7 e6 fe 3c d0 19 e5 bd bb 59 04 3e c1 49 5a 3d
       0.031115992 -0.11186564 0.12924854 0.053292993

cnn.0.bias f4 [32]
000000 f1 ae 38 be 19 1e fe bd a0 65 bb 3d 44 fd dc 3b
       -0.18035485 -0.124080844 0.09150243 0.006744059
000010 56 37 25 bd 44 b8 1a be 07 e2 23 be 50 4b 1f be
       -0.040335976 -0.15109354 -0.16004191 -0.15556073
000020 0d 9a 10 3d a9 9c a8 3b 4e 45 e9 bd ac 0b 00 3e
       0.035303164 0.0051456285 -0.11390172 0.12504452
000030 ba bf 82 3a 18 ff 78 3d 33 67 21 3d 02 ae 1a 3d
       0.0009975352 0.06079015 0.03940506 0.037763603
000040 6a 31 73 bd 8c 7b a5 3d 08 db dd 3d 6c 9f d0 bd
       -0.059373297 0.08080205 0.108327925 -0.10186657
000050 6a aa 8c 3d 4f fd 20 be a6 3d f9 bd d9 80 38 be
       0.068684414 -0.1572163 -0.12169962 -0.18017901
000060 33 8c ef bc ab 99 93 bd df 67 b5 3d 7e ca 60 3d
       -0.029241657 -0.07207044 0.088577025 0.05488061
000070 a0 1a d7 bc 39 5a 06 be b4 2d ef bd 78 ac 6b be
       -0.026257813 -0.13120355 -0.11678639 -0.2301501

cnn.4.weight f4 [64, 32, 3, 3]
000000 97 13 a2 bb 6a 5c 8c bb 07 0f 3f 3b a1 aa 85 bb
       -0.004946183 -0.0042834776 0.0029153244 -0.0040791784
000010 72 27 a9 bb 07 5a 89 3b 2a 03 6f bb 57 a5 77 bb
       -0.005162173 0.0041916403 -0.0036470392 -0.003778776
000020 44 7a 30 3a 93 ae 2b ba 66 b1 4a 3c 40 5d a3 b8
       0.0006732086 -0.0006549146 0.012371397 -7.789815e-05
000030 29 2d af ba 70 6e 8e 3b e9 a6 d2 b9 bc d0 53 3a
       -0.0013364899 0.0043466613 -0.0004017868 0.0008080115
000040 87 06 1f 3c 48 48 1d b9 1d 34 b5 bb b9 94 c3 b8
       0.009706146 -0.00014999614 -0.005529894 -9.326026e-05
000050 8e c3 a0 ba 0d ed 93 bb 4f 56 9e bb 71 33 dc ba
       -0.0012265311 -0.0045143426 -0.004832066 -0.0016799999
000060 0a 65 9c bb 42 06 f2 bb a2 fa 33 bb 14 5a 9a bb
       -0.004772787 -0.007386 -0.0027462621 -0.004710445
000070 27 fe 28 bb bf 34 b4 ba 0d 26 55 bb 8e ec 9a bb
       -0.0025786252 -0.001374863 -0.00325239 -0.0047279065
000080 62 d4 d2 ba fe aa 7d bb 3f 5a a3 bb 37 46 58 bb
       -0.0016085024 -0.0038706656 -0.0049851234 -0.0033000836
000090 6d 84 bf bb f8 9f 89 bb 5d 86 88 3b 03 d2 ac bb
       -0.005844644 -0.004199978 0.004166408 -0.005274059
0000a0 27 a8 fd bb 19 07 5d 3b 12 b1 b4 bb 12 5d f9 bb
       -0.0077409926 0.0033726154 -0.0055142725 -0.007609972
0000b0 97 7a b1 3a 5e 85 03 bb e3 72 32 3b 1d 12 9c 3b
       0.0013540563 -0.0020068507 0.0027229122 0.0047629015
0000c0 f0 68 a2 bb 67 5f 60 3b 5e 89 b3 3b 68 d9 9a bb
       -0.004956357 0.0034236552 0.005479022 -0.004725624
0000d0 21 80 c7 3a 72 ae 97 3b f5 53 30 3a 3e af 96 3b
       0.001522068 0.00462895 0.0006726378 0.004598527
0000e0 65 42 26 bb 6b 95 11 ba 22 cc f7 3b af 3a 7a bb
       -0.0025369164 -0.0005553576 0.0075621763 -0.003818195
0000f0 5f e0 85 39 56 8b c6 3b d0 13 1a bb d6 5a 89 bb
       0.00025534906 0.0060590906 -0.0023510344 -0.0041917367
000100 d5 ea 4e bb a0 24 b5 3b 00 8c 63 bb 8c e9 6c bb
       -0.0031573076 0.0055280477 -0.0034720898 -0.0036149947
000110 cf 0d b7 3b 23 db 54 bb 15 ba 7a bb 90 8a 99 3b
       0.005586363 -0.0032479248 -0.0038257886 0.0046857074
000120 b6 e4 19 bc 84 2c 25 bc 23 b3 bd 3b e8 b5 2d bc
       -0.009392908 -0.010081414 0.005789177 -0.010602452
000130 8a 5d 19 bc 81 49 59 3b 7a d9 0c bc be ec 16 bc
       -0.00936068 0.0033155384 -0.008596772 -0.009211717
000140 cc f6 a3 3b 1d f1 21 bc 52 b8 b3 3c cd 69 51 bb
       0.0050037857 -0.009884146 0.021938477 -0.0031953931
000150 61 87 36 bc 32 d9 6f 3c 99 24 d9 bb 03 1d 13 bc
       -0.011140675 0.014639186 -0.0066266772 -0.008979085
000160 95 38 68 3c 1e 13 a8 bb a7 ae 0b bb 64 e8 9c bb
       0.014173646 -0.005129232 -0.0021313818 -0.0047884453
000170 93 74 e5 3b 83 74 c1 37 a2 02 fc bb 55 e0 fd 3b
       0.007002422 2.3061648e-05 -0.0076907435 0.0077476897
000180 82 78 3f ba d0 cf e3 bb 48 b2 c3 3b 73 82 7d bb
       -0.0007304029 -0.0069522634 0.0059721805 -0.003868249
000190 83 21 99 3b 15 00 4a 3c 02 80 8a bb a7 81 f8 ba
       0.0046731844 0.012329121 -0.0042266855 -0.0018959538
0001a0 e3 57 46 3c 5d 9f a7 bb 8b 7b 87 b9 fa db 1d 3c
       0.012105915 -0.005115433 -0.00025841253 0.009634966
0001b0 e1 f4 43 bc d8 4c 92 3c 92 9f 09 bb 3e 24 24 bc
       -0.011960239 0.017858908 -0.0020999652 -0.010018406
0001c0 53 36 83 3c 99 ee 5b bb 62 56 14 bc b2 41 14 3c
       0.016017115 -0.0033558963 -0.009053798 0.009048866
0001d0 f7 aa 3f bb 27 72 1d bc ba aa bf b9 70 00 c8 3b
       -0.002924619 -0.009609736 -0.0003655756 0.006103568
0001e0 f0 d6 25 bc 78 03 2c 3c 78 54 64 3c 5d 31 3f bc
       -0.010122046 0.010498874 0.013936155 -0.011669484
0001f0 a4 06 08 3c 41 b1 35 3c 5a 76 cc bb 23 b8 68 bb
       0.0083023645 0.011089624 -0.0062396945 -0.0035510145
000200 00 d4 be ba f2 83 f4 bb 75 dc 22 bb 90 45 01 bb
       -0.001455903 -0.007462018 -0.002485064 -0.00197253
000210 98 c9 c3 bb aa ad 34 bb 6d d4 6f ba b0 4c 95 bb
       -0.0059749596 -0.0027569332 -0.00091487804 -0.004556261
000220 75 9c 10 bc 1f 29 0d 3b fe c4 78 39 15 5f 19 bc
       -0.008826365 0.0021539403 0.00023724508 -0.009361048
000230 9a 8a 84 3b ae ae a0 bb 35 f8 0a bc d9 e5 95 3b
       0.004044843 -0.004903636 -0.008482029 0.004574519
000240 e6 28 8a bb 4a 6a 61 b9 d1 f3 28 3b d0 57 3c bb
       -0.0042163013 -0.00021497268 0.0025780092 -0.0028738864
000250 62 c8 dc ba 5f aa 05 3b 32 1c 30 bb d9 95 57 bb
       -0.0016844387 0.0020395739 -0.0026872274 -0.0032895713
000260 94 9c 33 3a b2 88 05 bc dc b6 6d bc 81 ee 74 3b
       0.000685164 -0.0081502665 -0.014508929 0.0037373605
000270 d3 f2 e3 bb 61 a4 79 bc 2f 1b ad ba 01 70 d6 bb
       -0.006956437 -0.015236945 -0.0013206954 -0.0065441136
000280 04 31 5f bc 68 cd d0 ba 0d 20 f9 bb 59 c4 19 bb
       -0.013622526 -0.0015930356 -0.0076026977 -0.002346298
000290 8c a6 a9 ba 95 23 df bb 9c 7f 2d bb 2f a0 3b bb
       -0.0012943312 -0.0068096616 -0.0026473766 -0.0028629412
0002a0 d0 ca c6 bb 02 44 02 bb fc e5 83 ba 4f 15 e5 bb
       -0.0060666576 -0.0019876962 -0.0010063048 -0.0069910656
0002b0 af 31 24 3c 77 7e 00 3b 9f 94 e4 bb c2 e7 26 3c
       0.010021611 0.001960663 -0.006975725 0.010187091
0002c0 4b 00 f3 ba 2e 3f e9 bb 29 b6 55 3c 47 17 1f bb
       -0.0018539516 -0.0071181273 0.013043919 -0.002427535
0002d0 df 5b f7 bb 39 e3 b7 bb 8e 5b 10 3b 08 3e d9 bb
       -0.0075487937 -0.005611804 0.0022027227 -0.006629709
0002e0 47 10 2e bc 86 3e a5 ba d0 ee 4a bb 66 47 b1 bb
       -0.010623998 -0.0012607134 -0.0030965097 -0.0054101227
0002f0 48 eb 12 bb fd 44 96 bb 37 2e a9 ba 94 5b 42 3b
       -0.002241807 -0.0045858608 -0.001290745 0.0029656636
000300 3e 8b 99 bb 75 e9 d5 ba da eb 2f 3b d9 36 9a bb
       -0.0046857884 -0.0016320186 0.002684346 -0.0047062454
000310 20 67 af ba 1f 52 22 3b 25 1b 09 bb 84 04 92 bb
       -0.0013382174 0.0024768186 -0.002092072 -0.0044561047
000320 0c 5d 2b 3a 6f b9 b7 ba 09 a4 7b bb ac 99 b9 3a
       0.00065369974 -0.0014017056 -0.0038397333 0.0014160178
000330 df 17 15 bb 10 c2 bf ba e8 fe 00 3b a1 e4 b8 bb
       -0.0022749824 -0.0014629979 0.0019683186 -0.005642489
000340 bd 65 82 3b 4b 24 71 3b 47 8d a9 bb 86 5c a2 3b
       0.0039794133 0.0036795314 -0.0051743123 0.0049548773
000350 1d ab 2b 3b b5 88 c4 bb ef 2c 5e 3b 88 1a 04 3b
       0.002619452 -0.005997742 0.0033901294 0.0020157415
000360 10 71 53 b9 24 94 4a ba 1d de 61 bb 0a c1 0e bb
       -0.00020164647 -0.0007727763 -0.0034464665 -0.002178254
000370 4c e9 c5 ba 0c c4 05 bb 3f 99 4e bb 4f 27 71 bb
       -0.0015099435 -0.0020411042 -0.0031524447 -0.0036797111
000380 bb 91 94 bb 98 a3 54 ba e4 e1 ed ba ce bd 79 ba
       -0.004533974 -0.00081115356 -0.0018148986 -0.00095268793
000390 e6 8d b0 ba 90 25 87 bb 70 40 ae ba 23 e4 03 ba
       -0.0013470023 -0.004124351 -0.001329435 -0.00050312484
0003a0 83 ac 1c bb 71 b0 de ba 24 5f 31 bb 59 75 05 3b
       -0.0023906536 -0.001698984 -0.0027064765 0.0020364134
0003b0 9f 83 a8 b8 03 a3 c2 bb 30 76 9a ba 10 b3 80 bb
       -8.0353806e-05 -0.0059398427 -0.001178449 -0.003927596
0003c0 82 10 e4 bb fd 38 a2 39 87 2c 75 3a f2 f5 04 bc
       -0.0069599757 0.00030941507 0.00093526434 -0.008115279
0003d0 ab d3 66 bb 58 47 1b bc c4 2f 28 bc e8 83 67 bb
       -0.0035221379 -0.009477459 -0.010265294 -0.0035326425
0003e0 a8 60 f5 bb 53 1e 1f bc 4b 60 f0 ba 19 53 67 bb
       -0.007488329 -0.00971182 -0.0018339244 -0.0035297333
0003f0 88 48 a6 bb 2b df 52 bb f2 4b 0f ba d9 1c 9a bb
       -0.0050745644 -0.0032176476 -0.0005466334 -0.004703146

cnn.4.bias f4 [64]
000000 5f b4 5c bc ac 55 99 bc 0e a1 81 bc 1a 4f 63 bc
       -0.013470738 -0.01871761 -0.015823867 -0.01387384
000010 f8 2e 1f 3c aa e4 2f bc ad fe 5c bd 26 04 0d 3d
       0.009715788 -0.01073567 -0.053953815 0.034427784
000020 52 9c 74 bd 50 24 22 3d 1a 2d 55 3d ea 34 35 3d
       -0.05971939 0.03958541 0.052044965 0.044239916
000030 2e 0e 9b bd c9 c2 a0 bc 6c 62 c8 3b 38 88 bf bc
       -0.07571064 -0.01962413 0.0061152484 -0.023380384
000040 09 3a e2 3c 25 1f 31 bd de bb c5 3c b0 e2 61 bd
       0.027615564 -0.043242592 0.024137434 -0.055147827
000050 08 ab 2e bc 06 0a 24 bd 7d a5 b6 3c 02 2d 9d 3c
       -0.010660894 -0.04004862 0.022295708 0.0191865
000060 0d c8 0d bc f9 e7 5d 3c f4 b2 22 3b f0 64 39 3d
       -0.008653653 0.013544076 0.0024825903 0.045262277
000070 af 84 5b b0 78 4f 46 bd 4b c4 8c b0 37 9f 3a bd
       -7.986029e-10 -0.04841563 -1.024213e-09 -0.045561995
000080 f2 43 88 bc 64 a0 9b bc 9b 94 eb bc e2 3f 16 bd
       -0.016633961 -0.018997379 -0.028757384 -0.036682017
000090 0b 33 62 bd 32 29 69 3d 3e ad 15 3d 9f 01 17 3d
       -0.05522446 0.056924053 0.03654217 0.03686678
0000a0 ea 4f 1f bd 11 88 dd ba 7b 18 ff 3c 28 67 f5 3c
       -0.03889457 -0.0016901513 0.031139603 0.029956415
0000b0 e2 df 06 bd ac 1d 0a bd a0 70 40 bd f5 1d 2d b7
       -0.032928355 -0.033719704 -0.046982408 -1.03185785e-05
0000c0 38 07 c9 bc de e0 66 bc e6 f4 2d bd 20 cc 80 bd
       -0.024539575 -0.014091698 -0.04246988 -0.06288934
0000d0 52 e5 b0 bb f7 6d e3 bc 06 42 e3 96 d2 36 63 3d
       -0.005398431 -0.027762396 -3.6715495e-25 0.055472203
0000e0 bf b4 46 3d 8f f4 c0 3c a6 72 ee b2 35 1d 7d bb
       0.048512217 0.023554115 -2.7758983e-08 -0.0038622145
0000f0 17 9d 9e bb 1e fb eb b6 8d 6f d6 bc e0 1b 5b bb
       -0.004840504 -7.0327796e-06 -0.026176238 -0.0033433363

cnn.8.weight f4 [64, 64, 3, 3]
000000 7b e3 bb 38 99 2c 85 ba 27 af a5 b8 75 4d 57 b8
       8.9592264e-05 -0.0010160386 -7.900438e-05 -5.1332132e-05
000010 ef 65 00 ba e1 2e 72 b7 a7 4e c5 b8 42 4f 49 ba
       -0.0004898002 -1.4435239e-05 -9.408342e-05 -0.0007679352
000020 40 87 89 b8 3e 3b f4 ba 83 e4 02 ba 7a 5e 7c ba
       -6.557861e-05 -0.0018633378 -0.00049931573 -0.0009627115
000030 ad b8 ec ba 5d 7a 85 ba 32 4c ca ba 61 fd dc ba
       -0.0018060409 -0.0010183562 -0.0015434085 -0.0016860181
000040 21 8c b7 ba a7 1d 6e ba a2 52 73 ba c7 79 93 b9
       -0.0014003554 -0.0009083398 -0.00092820276 -0.00028128756
000050 b0 cb 46 ba 4f 06 3b ba d5 73 55 ba 4b d7 39 ba
       -0.00075834524 -0.0007134424 -0.00081425655 -0.0007089271
000060 8e af f9 b8 ef 4c c0 b9 1c 81 3a ba ba 20 9b ba
       -0.00011905945 -0.00036678414 -0.0007114576 -0.0011835315
000070 45 7c 7d b8 f0 c7 76 b9 8b db 14 ba 01 c9 58 ba
       -6.0435636e-05 -0.0002353487 -0.00056784664 -0.0008269698
000080 af 44 94 ba 44 a5 80 35 4a d7 67 ba b5 9a ac b9
       -0.0011311973 9.584842e-07 -0.0008844031 -0.00032921662
000090 81 b8 e8 b9 3b 99 90 ba 8e 97 dd b9 75 b8 a4 b9
       -0.00044387954 -0.0011031994 -0.00042265322 -0.0003141795
0000a0 7a d9 1d ba 71 15 18 ba 45 44 0f ba b0 2f 02 ba
       -0.0006021481 -0.0005801535 -0.000546519 -0.00049662124
0000b0 f2 58 48 ba f8 d6 1f b8 05 21 06 ba 7d 7f b8 b9
       -0.00076426484 -3.810876e-05 -0.00051166146 -0.000351902
0000c0 93 ac 71 39 3c 2c 91 b9 5d b5 21 38 de d7 fc b9
       0.0002304784 -0.00027689512 3.85543e-05 -0.0004822602
0000d0 15 76 c1 b9 09 eb bb b9 79 2f e3 b8 5f 56 b5 b9
       -0.00036899807 -0.00035842534 -0.00010833046 -0.00034587362
0000e0 df 83 0e ba 53 a8 1b ba 49 9c 3a ba fe e6 19 ba
       -0.00054365204 -0.0005937863 -0.0007118625 -0.00058709073
0000f0 4e 26 48 ba ec 37 e6 b9 da 13 f0 b9 34 94 16 ba
       -0.00076351024 -0.00043910684 -0.00045791158 -0.000574413
000100 a6 f3 03 ba 29 a6 f8 b9 22 31 05 ba ac f1 0a ba
       -0.000503356 -0.00047426045 -0.0005080869 -0.0005300294
000110 49 bf 40 ba 8d 81 40 ba 65 84 ad b9 4d 85 ff b9
       -0.00073527225 -0.00073435233 -0.00033095773 -0.00048736707
000120 a5 1f 26 ba 1f a2 55 ba e3 79 81 b9 3d 07 a9 ba
       -0.0006337113 -0.0008149463 -0.0002469561 -0.0012895834
000130 ea fb 82 ba e8 fe 3d ba 37 e9 2b ba 91 00 33 ba
       -0.0009993289 -0.0007247762 -0.0006557884 -0.00068283925
000140 0d d5 a9 ba 81 46 89 38 b6 ec 7e b8 13 60 d4 b9
       -0.0012957171 6.5458014e-05 -6.0778773e-05 -0.00040507372
000150 11 12 14 ba 9e 57 05 ba f0 2e 79 b9 dc f5 af ba
       -0.0005648444 -0.00050866033 -0.00023763976 -0.0013424712
000160 a2 8b 7f ba 6d de 3d ba bd 5e 5a ba 3e 5a 98 ba
       -0.0009748285 -0.0007242922 -0.0008330157 -0.0011623574
000170 f5 e7 bb ba 06 f6 9a ba 0f b9 be ba 32 0f de ba
       -0.0014336096 -0.0011822588 -0.0014551001 -0.0016941784
000180 c0 92 84 ba 1b c8 8d ba 3b d3 35 ba ee a5 96 b8
       -0.0010114536 -0.0010817082 -0.0006936078 -7.183464e-05
000190 33 ee 00 ba 02 70 0a ba 96 b4 07 ba 9c 4b 58 38
       -0.0004918307 -0.00052809727 -0.0005176751 5.156883e-05
0001a0 65 4c 0e ba b4 21 9f b8 c2 0f da b9 55 c1 80 b9
       -0.0005428254 -7.5879885e-05 -0.0004159194 -0.00024558106
0001b0 9b de 54 bb 6d 85 da ba 4c 7f cc ba 08 44 f3 ba
       -0.0032481316 -0.0016671844 -0.0015601902 -0.0018559704
0001c0 8f a3 1a bb 22 3f 21 bb ce 1d a2 ba 18 1f b6 ba
       -0.0023596024 -0.002460428 -0.0012368502 -0.0013894765
0001d0 e4 e4 b8 ba 5e 7d 22 b7 86 20 a1 b7 9d cf b0 b7
       -0.0014106301 -9.685142e-06 -1.920784e-05 -2.1077512e-05
0001e0 72 07 49 38 01 9f 00 b9 1b 56 98 b7 57 4f 77 34
       4.792907e-05 -0.00012266265 -1.8159908e-05 2.3032531e-07
0001f0 12 12 1f b8 f4 57 bf b7 74 7f 8c ba d2 d0 c0 b9
       -3.7925383e-05 -2.280993e-05 -0.0010719136 -0.00036776677
000200 94 1b 1c ba f0 f3 3d ba 2f 94 5d b9 ee c4 df b9
       -0.0005955037 -0.00072461274 -0.00021131405 -0.000426806
000210 25 a9 d2 b9 6e aa d3 b7 6a bd c1 b9 7a 55 b9 b8
       -0.00040180344 -2.5232523e-05 -0.00036952953 -8.837409e-05
000220 4a 1a 8e ba 96 6b 1a 39 20 5c 9b b9 3e ee 94 ba
       -0.0010841575 0.00014726663 -0.00029632542 -0.0011362506
000230 17 1d f5 37 47 aa 18 b7 d2 59 34 ba 59 69 04 b9
       2.9219822e-05 -9.099552e-06 -0.00068798393 -0.00012627746
000240 52 90 65 ba 6c b0 a3 ba ee ed 16 ba 4a 95 39 ba
       -0.0008757162 -0.0012488491 -0.00057575 -0.0007079436
000250 4a c2 a7 b9 da 2a 83 ba 28 99 21 ba 9b fd 0c ba
       -0.0003199748 -0.0010007278 -0.00061644847 -0.00053783663
000260 a5 95 0e ba 8b 10 83 b9 6b 31 48 ba be fe a0 b8
       -0.0005439169 -0.00024998593 -0.00076367584 -7.676844e-05
000270 5d 70 a1 b9 ff 06 37 ba 0a b2 4e b8 56 89 5b b9
       -0.0003079203 -0.00069819385 -4.928004e-05 -0.00020936629
000280 10 52 14 ba c7 a0 05 b9 27 22 3f b8 7a d9 69 39
       -0.000565798 -0.00012743763 -4.5569755e-05 0.00022301628
000290 72 89 38 b8 4c 48 6e b9 47 4f 40 ba 37 08 62 b9
       -4.3997024e-05 -0.00022724381 -0.0007336032 -0.000215561
0002a0 8c fe ea b9 c4 fa fb b9 01 24 5e b9 16 d5 2c 38
       -0.0004482161 -0.00048061286 -0.00021184982 4.1206447e-05
0002b0 58 42 9d 39 a5 8c e3 b9 2b a6 49 37 79 17 d4 b7
       0.00029994803 -0.00043401602 1.2019223e-05 -2.52833e-05
0002c0 0b 2e f7 b9 33 89 59 b8 5a f1 14 38 f4 47 20 b9
       -0.00047145816 -5.186461e-05 3.5510726e-05 -0.00015285594
0002d0 9f 43 98 b8 b2 f1 60 ba ca f4 33 ba 6e 37 85 b9
       -7.26052e-05 -0.0008580937 -0.00068647845 -0.00025409035
0002e0 84 ac 41 ba 7c ad ef b9 27 ab 7b b9 dd e3 91 b9
       -0.00073880726 -0.00045714888 -0.00024000985 -0.00027826327
0002f0 c9 6b ec b9 6a c5 10 b8 bb 2c d9 b8 07 69 6b ba
       -0.00045093734 -3.451613e-05 -0.00010355698 -0.0008980189
000300 65 91 b3 b9 62 c2 cd b9 4d c7 61 39 66 37 46 ba
       -0.00034249868 -0.00039245473 0.00021531917 -0.00075613556
000310 56 1a 11 b9 14 be 15 ba 53 f8 1b bb 57 a5 03 bb
       -0.00013838088 -0.0005712223 -0.0023799136 -0.0020087564
000320 64 26 15 bb b7 42 29 bb 0e b6 11 bb b8 0f de ba
       -0.0022758478 -0.0025827119 -0.0022233757 -0.001694194
000330 94 5b 58 bb f1 13 3f bb 76 58 d3 ba 25 55 17 ba
       -0.003301357 -0.0029156173 -0.0016124386 -0.00057728804
000340 f6 3f 35 ba 8d c4 bf b9 09 91 d2 b9 75 bf 4e ba
       -0.0006914133 -0.000365768 -0.0004016238 -0.00078868057
000350 7e 4d 1f ba 64 ef 90 b9 65 95 5e b9 ca 8a d4 b9
       -0.0006076916 -0.0002764418 -0.00021227224 -0.00040539197
000360 6e 5c 9c b9 aa 5f c5 b9 e7 5e 90 b9 b9 37 f0 b9
       -0.00029823504 -0.00037646043 -0.00027536528 -0.00045817884
000370 df 09 0a b9 9f b0 a4 b8 32 a6 84 b9 dc 48 aa b8
       -0.00013164383 -7.853028e-05 -0.00025300827 -8.119803e-05
000380 43 8a 07 b9 85 c4 bc ba 5d 2e 82 ba 24 a8 75 ba
       -0.0001292611 -0.0014401829 -0.000993203 -0.0009371063
000390 f1 22 8e ba 91 c3 53 ba 6a 56 47 ba 0a 78 29 ba
       -0.0010844154 -0.0008078153 -0.0007604124 -0.00064647256
0003a0 d9 5f 5f ba 08 21 0e ba 71 a0 3d bb 98 c0 13 bb
       -0.00085210573 -0.0005421792 -0.0028934742 -0.0022545215
0003b0 d6 2e 1c bb 3b c0 b4 ba 85 2b ad ba a6 31 1e bb
       -0.0023831627 -0.0013790199 -0.0013211822 -0.002413848
0003c0 97 98 99 ba 51 b4 d4 ba 25 e8 d4 ba bf 7b 8a b9
       -0.0011718449 -0.0016228055 -0.0016243501 -0.0002641361
0003d0 42 dc 9a b9 f3 2e 92 b9 8c 26 fb b9 57 e4 2e ba
       -0.00029537274 -0.0002788227 -0.0004790317 -0.00066715985
0003e0 5a 6d 0c ba b5 f6 c0 b9 c1 97 d7 b9 5b 9d 03 b9
       -0.0005356871 -0.00036804905 -0.0004112106 -0.00012551753
0003f0 aa 6b 3b 97 62 35 8b 15 7f ee 0d 98 b3 3d 60 16
       -6.055885e-25 5.6225876e-26 -1.8344233e-24 1.8114045e-25

cnn.8.bias f4 [64]
000000 37 0b 36 3b 2d a2 f1 ba 49 ba 08 3d c0 b3 39 3c
       0.002777768 -0.0018435173 0.03338078 0.01133436
000010 72 90 dd bb 58 f0 ac bb 63 cc 55 3c d6 36 15 3c
       -0.006761604 -0.0052776746 0.013049218 0.009107312
000020 94 eb 1f 3c 0f 3e 88 bb cd dd 32 3c dc aa bb 3b
       0.009760756 -0.0041577886 0.010917139 0.005727155
000030 8e fe 30 3c 75 6e 0a b8 1c ad 0e bc e7 c7 2e 3b
       0.010802878 -3.3004635e-05 -0.008708265 0.0026669444
000040 00 52 37 a1 1e f7 18 a1 d8 2b de bb 01 8b fc 3c
       -6.211134e-19 -5.182666e-19 -0.006780129 0.030828001
000050 5c 9b 05 3b e5 7e 0a 3c e4 e4 a1 bb 5b 97 1a 3d
       0.002038679 0.008453106 -0.004940616 0.037742
000060 bd 0e 0f 3c a7 43 9d ba f2 c1 05 bd ff e3 81 3c
       0.008731541 -0.0011998311 -0.032655664 0.015855787
000070 57 d7 61 3b dc d8 42 3a f2 e0 06 bc b2 45 2a 3c
       0.0034460628 0.0007432827 -0.008232342 0.010392593
000080 81 39 94 3a b7 5f d6 bb f8 39 10 3d 21 bb 03 3d
       0.0011308641 -0.006542172 0.035211533 0.032160882
000090 ae a2 11 b1 cc db 9b ab 76 a7 18 3d 4c aa 3f b8
       -2.119275e-09 -1.1074418e-12 0.03726908 -4.569655e-05
0000a0 b3 e1 41 b9 fa a6 03 bc 06 5f de bb a2 39 c1 b2
       -0.00018489994 -0.008035416 -0.00678623 -2.2494365e-08
0000b0 ef 13 26 3d c6 45 ce bb ab ba ae 3a 70 5f ce bb
       0.040546354 -0.0062949387 0.0013330778 -0.006297998
0000c0 f2 41 9d ba 90 ff b6 3c 7a da 23 3c a6 47 ad bc
       -0.0011997803 0.022338659 0.010000819 -0.021152329
0000d0 ff 43 d2 3b d9 21 99 3b b2 59 35 bc 3f 46 b6 3c
       0.006416797 0.0046732244 -0.011068748 0.022250293
0000e0 80 18 a9 b7 9d f5 fb 3c 1b 9f 14 bb b5 f7 b9 ba
       -2.0157779e-05 0.030756766 -0.0022677842 -0.0014188202
0000f0 94 d0 71 bb b7 a6 c7 3b 70 c4 ee 3c 34 b0 5e bb
       -0.0036898004 0.006092872 0.029146403 -0.0033979537

transformer.layers.0.self_attn.in_proj_weight f4 [192, 64]
000000 d2 0d 00 00 c5 0d 00 00 c2 0d 00 80 d2 0d 00 80
       4.958e-42 4.94e-42 -4.935e-42 -4.958e-42
000010 e7 0d 00 00 5b 0b 00 80 17 0b 00 00 c0 0d 00 00
       4.987e-42 -4.074e-42 3.978e-42 4.933e-42
000020 cc 0d 00 00 e4 0d 00 00 b2 0d 00 80 af 0d 00 80
       4.95e-42 4.983e-42 -4.913e-42 -4.909e-42
000030 ae 0d 00 80 cb 0d 00 00 ac 0d 00 00 8c 0a 00 00
       -4.907e-42 4.948e-42 4.905e-42 3.784e-42
000040 c3 0d 00 00 e0 0d 00 00 d0 0d 00 80 7f 0d 00 00
       4.937e-42 4.977e-42 -4.955e-42 4.841e-42
000050 e5 0d 00 80 03 0b 00 80 d9 0d 00 00 25 0b 00 80
       -4.984e-42 -3.95e-42 4.968e-42 -3.998e-42
000060 c7 0d 00 00 f0 0d 00 00 31 0c 00 00 b0 0d 00 80
       4.942e-42 5e-42 4.373e-42 -4.91e-42
000070 be 0d 00 80 1c 0e 00 00 87 0d 00 00 b7 0d 00 00
       -4.93e-42 5.061e-42 4.853e-42 4.92e-42
000080 ea 0d 00 00 d2 0d 00 00 cc 0d 00 80 f6 0d 00 80
       4.991e-42 4.958e-42 -4.95e-42 -5.008e-42
000090 bf 0d 00 00 af 0d 00 00 d9 0d 00 80 c5 0d 00 80
       4.931e-42 4.909e-42 -4.968e-42 -4.94e-42
0000a0 bc 0d 00 00 d2 0d 00 00 b0 0d 00 00 dd 0d 00 00
       4.927e-42 4.958e-42 4.91e-42 4.973e-42
0000b0 32 09 00 80 f9 0d 00 00 ad 0d 00 80 14 0e 00 00
       -3.299e-42 5.012e-42 -4.906e-42 5.05e-42
0000c0 d4 0d 00 00 ad 0d 00 00 b5 0d 00 80 f1 0d 00 00
       4.96e-42 4.906e-42 -4.917e-42 5.001e-42
0000d0 d0 0d 00 80 b0 0d 00 80 19 0e 00 80 ac 0d 00 80
       -4.955e-42 -4.91e-42 -5.057e-42 -4.905e-42
0000e0 b0 0a 00 00 b1 0d 00 00 c0 0d 00 80 6e 0d 00 80
       3.834e-42 4.912e-42 -4.933e-42 -4.818e-42
0000f0 df 0d 00 00 c1 0d 00 00 c0 0d 00 80 eb 0d 00 80
       4.976e-42 4.934e-42 -4.933e-42 -4.993e-42
000100 07 05 00 00 53 0b 00 00 48 0e 00 80 e6 0d 00 00
       1.803e-42 4.062e-42 -5.123e-42 4.986e-42
000110 c5 0d 00 80 ec 0c 00 80 28 0f 00 80 b0 0d 00 80
       -4.94e-42 -4.635e-42 -5.437e-42 -4.91e-42
000120 b0 0d 00 80 b8 0d 00 80 62 0b 00 80 d7 0d 00 00
       -4.91e-42 -4.921e-42 -4.083e-42 4.965e-42
000130 84 0e 00 80 52 01 00 80 77 0e 00 00 30 0e 00 00
       -5.207e-42 -4.74e-43 5.189e-42 5.09e-42
000140 0e 00 00 80 6d 0e 00 80 12 0e 00 80 d5 0d 00 80
       -2e-44 -5.175e-42 -5.047e-42 -4.962e-42
000150 6d 0f 00 80 b5 0d 00 80 ea 09 00 80 ff 0d 00 80
       -5.534e-42 -4.917e-42 -3.556e-42 -5.021e-42
000160 b3 0d 00 00 05 0e 00 80 b4 0d 00 00 02 0e 00 80
       4.914e-42 -5.029e-42 4.916e-42 -5.025e-42
000170 dd 05 00 00 a5 0f 00 00 e6 0e 00 00 7e 07 00 80
       2.103e-42 5.612e-42 5.345e-42 -2.688e-42
000180 72 0d 00 80 ef 0d 00 00 08 0e 00 00 fa 09 00 80
       -4.823e-42 4.998e-42 5.033e-42 -3.579e-42
000190 3d 0e 00 00 d4 0d 00 80 c1 0e 00 00 29 0e 00 80
       5.108e-42 -4.96e-42 5.293e-42 -5.08e-42
0001a0 d6 0d 00 00 d2 0b 00 80 ec 07 00 00 c9 0d 00 00
       4.963e-42 -4.24e-42 2.842e-42 4.945e-42
0001b0 ce 0d 00 80 d5 0d 00 00 e2 0d 00 80 cf 0d 00 00
       -4.952e-42 4.962e-42 -4.98e-42 4.954e-42
0001c0 6d 0e 00 00 cf 0d 00 80 f0 0d 00 00 20 0e 00 80
       5.175e-42 -4.954e-42 5e-42 -5.067e-42
0001d0 1a 0f 00 00 ee 0d 00 80 ea 0b 00 80 2f 0e 00 00
       5.417e-42 -4.997e-42 -4.274e-42 5.088e-42
0001e0 8a 0e 00 80 a6 04 00 00 f9 0d 00 00 6c 0e 00 00
       -5.216e-42 1.668e-42 5.012e-42 5.174e-42
0001f0 09 0e 00 80 1d 11 00 80 3a 04 00 00 17 08 00 80
       -5.035e-42 -6.139e-42 1.516e-42 -2.902e-42
000200 bf 00 00 80 2f 0e 00 80 c7 02 00 80 31 0e 00 00
       -2.68e-43 -5.088e-42 -9.96e-43 5.091e-42
000210 b8 0d 00 80 dc 07 00 80 a3 10 00 80 2a 0e 00 00
       -4.921e-42 -2.82e-42 -5.968e-42 5.081e-42
000220 ec 0d 00 80 57 05 00 00 86 06 00 00 d2 0d 00 00
       -4.994e-42 1.916e-42 2.34e-42 4.958e-42
000230 4f 0e 00 00 5c 09 00 00 dc 0d 00 00 b7 09 00 00
       5.133e-42 3.358e-42 4.972e-42 3.485e-42
000240 4f 01 00 80 bc 0a 00 00 14 07 00 00 b0 0d 00 80
       -4.7e-43 3.851e-42 2.539e-42 -4.91e-42
000250 6f 0e 00 80 5c 0b 00 80 6a 0c 00 80 33 0e 00 80
       -5.178e-42 -4.075e-42 -4.453e-42 -5.094e-42
000260 02 0b 00 80 9b 0a 00 00 c4 08 00 00 e3 0d 00 00
       -3.949e-42 3.805e-42 3.145e-42 4.982e-42
000270 4a 08 00 80 62 0b 00 80 59 0b 00 80 93 0a 00 00
       -2.974e-42 -4.083e-42 -4.071e-42 3.793e-42
000280 28 0e 00 00 b7 00 00 80 ca 08 00 80 9e 0e 00 00
       5.078e-42 -2.56e-43 -3.153e-42 5.244e-42
000290 e6 02 00 00 ce 0b 00 00 5a 0e 00 00 bb 03 00 80
       1.04e-42 4.235e-42 5.148e-42 -1.338e-42
0002a0 f3 0e 00 80 9e 03 00 80 65 10 00 80 36 0e 00 80
       -5.363e-42 -1.298e-42 -5.881e-42 -5.098e-42
0002b0 61 03 00 00 bc 0d 00 80 48 08 00 80 40 0e 00 00
       1.212e-42 -4.927e-42 -2.971e-42 5.112e-42
0002c0 a0 0d 00 80 5e 05 00 00 8e 0b 00 00 9b 0e 00 80
       -4.888e-42 1.925e-42 4.145e-42 -5.24e-42
0002d0 13 04 00 80 34 00 00 00 67 0c 00 80 33 0e 00 80
       -1.462e-42 7.3e-44 -4.449e-42 -5.094e-42
0002e0 b6 0b 00 00 79 0e 00 00 67 0e 00 00 7c 0a 00 00
       4.201e-42 5.192e-42 5.167e-42 3.761e-42
0002f0 08 0f 00 80 ef 0d 00 00 60 0e 00 00 7b 01 00 00
       -5.392e-42 4.998e-42 5.157e-42 5.31e-43
000300 b6 0d 00 00 ba 0d 00 80 0a 0e 00 00 13 0e 00 80
       4.919e-42 -4.924e-42 5.036e-42 -5.049e-42
000310 f6 0d 00 80 cc 0d 00 00 c0 0d 00 00 83 09 00 00
       -5.008e-42 4.95e-42 4.933e-42 3.412e-42
000320 4e 0e 00 80 b0 0d 00 80 ae 0d 00 80 de 0d 00 00
       -5.132e-42 -4.91e-42 -4.907e-42 4.975e-42
000330 16 0e 00 80 b8 0c 00 80 d0 0d 00 80 07 0e 00 00
       -5.053e-42 -4.563e-42 -4.955e-42 5.032e-42
000340 cc 0d 00 80 da 0d 00 80 2a 0e 00 00 0f 0e 00 80
       -4.95e-42 -4.969e-42 5.081e-42 -5.043e-42
000350 ac 0d 00 00 e1 0d 00 80 0b 0e 00 00 c5 0a 00 80
       4.905e-42 -4.979e-42 5.038e-42 -3.863e-42
000360 e6 0d 00 80 18 0e 00 00 ce 0d 00 80 c2 0d 00 00
       -4.986e-42 5.056e-42 -4.952e-42 4.935e-42
000370 7b 0e 00 00 ba 0d 00 00 ed 0a 00 80 e8 0d 00 00
       5.195e-42 4.924e-42 -3.92e-42 4.989e-42
000380 b4 0d 00 80 66 0e 00 80 0a 0a 00 80 16 0e 00 80
       -4.916e-42 -5.165e-42 -3.601e-42 -5.053e-42
000390 bc 0d 00 00 23 0e 00 00 b3 0d 00 00 b6 0d 00 80
       4.927e-42 5.071e-42 4.914e-42 -4.919e-42
0003a0 d8 0b 00 80 d3 0c 00 80 92 0b 00 00 d9 0d 00 80
       -4.249e-42 -4.6e-42 4.15e-42 -4.968e-42
0003b0 e8 0d 00 80 7c 0b 00 80 d1 0d 00 80 d0 0d 00 80
       -4.989e-42 -4.12e-42 -4.956e-42 -4.955e-42
0003c0 69 0b 00 00 cd 0d 00 80 c7 0d 00 00 2e 0d 00 00
       4.093e-42 -4.951e-42 4.942e-42 4.728e-42
0003d0 bf 0d 00 80 bf 0d 00 80 30 0a 00 80 b3 0d 00 80
       -4.931e-42 -4.931e-42 -3.655e-42 -4.914e-42
0003e0 04 0e 00 80 ba 0d 00 00 24 0e 00 80 c3 0c 00 80
       -5.028e-42 4.924e-42 -5.073e-42 -4.578e-42
0003f0 0b 0e 00 00 ea 0d 00 80 12 0e 00 80 d6 0a 00 00
       5.038e-42 -4.991e-42 -5.047e-42 3.887e-42

transformer.layers.0.self_attn.in_proj_bias f4 [192]
000000 d4 0d 00 80 d0 0d 00 80 c7 0d 00 00 c9 0d 00 80
       -4.96e-42 -4.955e-42 4.942e-42 -4.945e-42
000010 b7 0d 00 00 d3 0d 00 00 b5 0d 00 80 f3 0d 00 00
       4.92e-42 4.959e-42 -4.917e-42 5.004e-42
000020 d3 0d 00 00 e7 0d 00 00 e0 0d 00 00 d1 0d 00 80
       4.959e-42 4.987e-42 4.977e-42 -4.956e-42
000030 ea 0d 00 80 be 0d 00 00 ce 0d 00 00 b0 0d 00 80
       -4.991e-42 4.93e-42 4.952e-42 -4.91e-42
000040 bb 0d 00 80 e4 0d 00 80 d6 0d 00 80 b2 0d 00 00
       -4.926e-42 -4.983e-42 -4.963e-42 4.913e-42
000050 b2 0d 00 00 b3 0d 00 00 bd 0d 00 00 ce 0d 00 80
       4.913e-42 4.914e-42 4.928e-42 -4.952e-42
000060 b5 0d 00 80 ca 0d 00 80 ac 0d 00 80 b9 0d 00 00
       -4.917e-42 -4.947e-42 -4.905e-42 4.923e-42
000070 b1 0d 00 00 ca 0d 00 80 bd 0d 00 80 bb 0d 00 80
       4.912e-42 -4.947e-42 -4.928e-42 -4.926e-42
000080 ad 0d 00 80 cc 0d 00 00 b5 0d 00 00 b7 0d 00 00
       -4.906e-42 4.95e-42 4.917e-42 4.92e-42
000090 c9 0d 00 80 af 0d 00 00 cd 0d 00 80 b3 0d 00 80
       -4.945e-42 4.909e-42 -4.951e-42 -4.914e-42
0000a0 bf 0d 00 80 be 0d 00 00 b5 0d 00 00 cf 0d 00 80
       -4.931e-42 4.93e-42 4.917e-42 -4.954e-42
0000b0 c3 0d 00 00 bf 0d 00 00 e0 0d 00 00 de 0d 00 80
       4.937e-42 4.931e-42 4.977e-42 -4.975e-42
0000c0 ae 0d 00 80 e7 0d 00 00 d2 0d 00 00 cd 0d 00 80
       -4.907e-42 4.987e-42 4.958e-42 -4.951e-42
0000d0 d5 0d 00 80 ec 0d 00 80 c4 0d 00 80 b0 0d 00 00
       -4.962e-42 -4.994e-42 -4.938e-42 4.91e-42
0000e0 ca 0d 00 00 ad 0d 00 80 b1 0d 00 00 b6 0d 00 80
       4.947e-42 -4.906e-42 4.912e-42 -4.919e-42
0000f0 b2 0d 00 80 cf 0d 00 80 c4 0d 00 00 c9 0d 00 00
       -4.913e-42 -4.954e-42 4.938e-42 4.945e-42
000100 fb 0f 00 80 73 0e 00 00 df 0f 00 80 5c 0f 00 80
       -5.733e-42 5.183e-42 -5.693e-42 -5.51e-42
000110 8a 67 00 00 fd 0f 00 00 f3 0d 00 00 2f 0f 00 80
       3.7143e-41 5.736e-42 5.004e-42 -5.447e-42
000120 6d 11 00 80 d7 0e 00 80 85 10 00 00 6f 10 00 00
       -6.251e-42 -5.324e-42 5.926e-42 5.895e-42
000130 76 0b 00 80 14 0f 00 00 1a 11 00 00 38 0e 00 80
       -4.111e-42 5.409e-42 6.135e-42 -5.101e-42
000140 ca 0d 00 00 dc 10 00 00 a9 0f 00 00 be 0f 00 80
       4.947e-42 6.048e-42 5.618e-42 -5.647e-42
000150 4b 0f 00 80 25 0f 00 00 73 0e 00 00 3c 0f 00 00
       -5.486e-42 5.433e-42 5.183e-42 5.465e-42
000160 a7 0f 00 00 7c 10 00 00 79 10 00 00 25 11 00 00
       5.615e-42 5.913e-42 5.909e-42 6.15e-42
000170 7a 0f 00 80 95 0c 00 80 4b 0e 00 00 93 11 00 80
       -5.552e-42 -4.514e-42 5.127e-42 -6.304e-42
000180 e0 10 00 00 28 0e 00 80 92 0e 00 80 57 0f 00 80
       6.054e-42 -5.078e-42 -5.227e-42 -5.503e-42
000190 01 73 00 00 72 77 00 80 a9 0e 00 00 61 10 00 80
       4.1256e-41 -4.2849e-41 5.259e-42 -5.876e-42
0001a0 f8 10 00 80 8c 0f 00 80 0f 0e 00 80 43 0e 00 80
       -6.087e-42 -5.577e-42 -5.043e-42 -5.116e-42
0001b0 ba 0f 00 00 1d 0e 00 00 2b 0e 00 80 8c 10 00 00
       5.642e-42 5.063e-42 -5.083e-42 5.936e-42
0001c0 da 10 00 00 66 10 00 00 91 0e 00 80 a2 0e 00 00
       6.045e-42 5.883e-42 -5.225e-42 5.249e-42
0001d0 67 10 00 80 9f 0e 00 80 52 0e 00 80 93 0f 00 80
       -5.884e-42 -5.245e-42 -5.137e-42 -5.587e-42
0001e0 cb 0b 00 80 50 0f 00 80 9e 10 00 80 79 0e 00 00
       -4.23e-42 -5.493e-42 -5.961e-42 5.192e-42
0001f0 ca 0f 00 00 79 0b 00 80 2c 11 00 00 47 10 00 80
       5.664e-42 -4.116e-42 6.16e-42 -5.839e-42
000200 52 79 09 39 63 fe a3 ba cd e0 0b 3b f5 f0 82 3a
       0.00013110533 -0.0012511726 0.0021343709 0.0009990024
000210 39 bc 57 3a cb a9 22 bb 44 54 f9 38 94 bf 06 3a
       0.00082296465 -0.0024820443 0.00011888941 0.00051402417
000220 a7 09 4e ba a2 d1 95 3b 90 ea 88 b9 da ab fa b8
       -0.00078597147 0.0045721093 -0.00026114704 -0.00011952939
000230 7b 51 9b bb d2 0b c7 b9 db 40 43 b9 35 28 e3 b5
       -0.004739938 -0.00037965045 -0.0001862081 -1.692452e-06
000240 41 37 96 b7 bc a9 da 39 2f 01 14 ba e7 87 2e ba
       -1.7907123e-05 0.00041706662 -0.00056459283 -0.0006657824
000250 e9 c7 9c bb 73 c9 33 bb 7d fb d5 b8 61 ff 07 3a
       -0.0047845733 -0.0027433306 -0.00010203475 0.0005187896
000260 f3 98 c6 b8 3f f4 b3 ba a9 d6 1f 39 08 58 6c 3b
       -9.469865e-05 -0.0013729407 0.00015243389 0.0036063213
000270 90 14 f4 b9 9a 77 d1 b9 7c 5e 81 b8 fd 39 c8 b8
       -0.00046554627 -0.00039952697 -6.1687984e-05 -9.547544e-05
000280 ce c4 11 3b a4 93 30 3a 6e b1 1b 3a 00 9b 01 3b
       0.002224255 0.00067358674 0.000593922 0.0019776225
000290 66 bf 1b bb 6d 84 28 37 bd 25 12 ba 8e e0 34 b9
       -0.0023765205 1.0044413e-05 -0.00055750814 -0.00017249791
0002a0 b5 2b 33 39 3d 1f 7c b8 74 c7 4b 3a 4c 3e 81 ba
       0.00017087052 -6.0110575e-05 0.0007773556 -0.0009860485
0002b0 87 a0 0b b7 a6 30 77 3a 2a 6d 9c b8 f4 fc 2b bb
       -8.322421e-06 0.00094295514 -7.458993e-05 -0.00262433
0002c0 73 fa a0 39 e7 6b 9b 39 c6 c9 ec ba e5 48 3a b8
       0.00030704177 0.00029644297 -0.0018065504 -4.4413744e-05
0002d0 69 3f 3b 3a ac ca b0 3a fd 32 67 38 fd b9 d2 37
       0.0007142933 0.0013488135 5.512218e-05 2.5120558e-05
0002e0 65 67 07 ba c7 e5 ee 39 f4 eb fa b9 6a 69 1a 3b
       -0.00051652483 0.00045566095 -0.00047859515 0.0023561367
0002f0 73 e7 a1 3b 91 37 7b ba d4 34 9d b7 5e 89 06 ba
       0.004940921 -0.000958317 -1.8740458e-05 -0.00051321636
